2025-02-04 22:24:02,754 - INFO - Total scenes detected: 200
2025-02-04 22:24:19,866 - INFO - ===============================================================================================
Layer (type:depth-idx)                        Output Shape              Param #
===============================================================================================
MultiModalBBoxPredictor                       [4, 2]                    1
├─ResNetBackbone: 1-1                         [4, 512, 4, 4]            --
│    └─Sequential: 2-1                        [4, 64, 32, 32]           --
│    │    └─Conv2d: 3-1                       [4, 64, 64, 64]           (9,408)
│    │    └─BatchNorm2d: 3-2                  [4, 64, 64, 64]           (128)
│    │    └─ReLU: 3-3                         [4, 64, 64, 64]           --
│    │    └─MaxPool2d: 3-4                    [4, 64, 32, 32]           --
│    └─Sequential: 2-2                        [4, 64, 32, 32]           --
│    │    └─BasicBlock: 3-5                   [4, 64, 32, 32]           (73,984)
│    │    └─BasicBlock: 3-6                   [4, 64, 32, 32]           (73,984)
│    └─Sequential: 2-3                        [4, 128, 16, 16]          --
│    │    └─BasicBlock: 3-7                   [4, 128, 16, 16]          (230,144)
│    │    └─BasicBlock: 3-8                   [4, 128, 16, 16]          (295,424)
│    └─Sequential: 2-4                        [4, 256, 8, 8]            --
│    │    └─BasicBlock: 3-9                   [4, 256, 8, 8]            (919,040)
│    │    └─BasicBlock: 3-10                  [4, 256, 8, 8]            (1,180,672)
│    └─Sequential: 2-5                        [4, 512, 4, 4]            --
│    │    └─BasicBlock: 3-11                  [4, 512, 4, 4]            (3,673,088)
│    │    └─BasicBlock: 3-12                  [4, 512, 4, 4]            (4,720,640)
├─LayerNorm: 1-2                              [4, 16, 512]              1,024
├─SimplePointNetPP: 1-3                       [512, 512]                --
│    └─PointNetConv: 2-6                      [1024, 128]               --
│    │    └─Sequential: 3-13                  [1024, 128]               17,664
│    │    └─MaxAggregation: 3-14              [1024, 128]               --
│    └─PointNetConv: 2-7                      [512, 512]                --
│    │    └─Sequential: 3-15                  [512, 512]                165,888
│    │    └─MaxAggregation: 3-16              [512, 512]                --
├─LayerNorm: 1-4                              [4, 256, 512]             1,024
├─CrossAttentionFusion: 1-5                   [4, 256, 512]             --
│    └─Linear: 2-8                            [4, 16, 512]              262,656
│    └─MultiheadAttention: 2-9                [4, 256, 512]             1,050,624
├─Sequential: 1-6                             [4, 256]                  --
│    └─Linear: 2-10                           [4, 512]                  524,800
│    └─ReLU: 2-11                             [4, 512]                  --
│    └─Dropout: 2-12                          [4, 512]                  --
│    └─Linear: 2-13                           [4, 256]                  131,328
│    └─ReLU: 2-14                             [4, 256]                  --
├─Sequential: 1-7                             [4, 3]                    --
│    └─Linear: 2-15                           [4, 128]                  32,896
│    └─ReLU: 2-16                             [4, 128]                  --
│    └─Dropout: 2-17                          [4, 128]                  --
│    └─Linear: 2-18                           [4, 3]                    387
├─Sequential: 1-8                             [4, 3]                    --
│    └─Linear: 2-19                           [4, 128]                  32,896
│    └─ReLU: 2-20                             [4, 128]                  --
│    └─Dropout: 2-21                          [4, 128]                  --
│    └─Linear: 2-22                           [4, 3]                    387
│    └─Softplus: 2-23                         [4, 3]                    --
├─Sequential: 1-9                             [4, 2]                    --
│    └─Linear: 2-24                           [4, 128]                  32,896
│    └─ReLU: 2-25                             [4, 128]                  --
│    └─Dropout: 2-26                          [4, 128]                  --
│    └─Linear: 2-27                           [4, 2]                    258
├─Sequential: 1-10                            [4, 2]                    --
│    └─Linear: 2-28                           [4, 128]                  32,896
│    └─ReLU: 2-29                             [4, 128]                  --
│    └─Dropout: 2-30                          [4, 128]                  --
│    └─Linear: 2-31                           [4, 2]                    258
===============================================================================================
Total params: 13,464,395
Trainable params: 2,287,883
Non-trainable params: 11,176,512
Total mult-adds (G): 2.48
===============================================================================================
Input size (MB): 0.81
Forward/backward pass size (MB): 64.00
Params size (MB): 49.66
Estimated Total Size (MB): 114.47
…
